AI_Models/Predictive Maintenance/embedded models/Engine Bearing/cnn_quant_three_features.tflite (tflite, 16664 bytes, 4 tensors)

tfl.pseudo_qconst1 i1 [1, 32] scale=0.0031986802 zero_point=0
00000000: e67f 16c0 be11 581f 15bf 1ce1 181b 12cd
00000010: 931c 1b46 14c6 23b7 e2dc 11d4 ddcd afd9
-0.08316568 0.4062324 0.070370965 -0.20471554 -0.2111129 0.054377563 0.28148386 0.099159084
0.06717228 -0.20791422 0.08956305 -0.099159084 0.076768324 0.086364366 0.057576243 -0.1631327
-0.34865615 0.08956305 0.086364366 0.22390762 0.063973606 -0.18552345 0.11195381 -0.23350365
-0.09596041 -0.115152486 0.054377563 -0.14074193 -0.11195381 -0.1631327 -0.2590931 -0.12474853

tfl.pseudo_qconst3 i1 [32, 64]
00000000: be67 81c1 c70a 02cf 18fb 0b1e fec6 fbb0
00000010: dc2e 1f36 01f7 fee4 d0e3 2315 d4eb ab97
00000020: 06ff 06bd fe19 1aed 1129 121d e028 0038
00000030: 11e9 1ffa 181a 46ef f50f 0802 07ef 020f
00000040: 0d55 050f 49f8 d8f4 04f0 faf5 05f5 196c
00000050: 09d0 0de5 0808 0d3b 2802 00f3 c3c1 1a09
00000060: 204c d9f4 fefc 0313 090b 0ac5 0a37 3801
00000070: 2a0d 1421 f1f4 8154 01f6 1e0c e2e2 01e7
00000080: 182f 08dc 2e10 d300 f80a fafc 0706 ff50
00000090: f609 ed81 05ff 0c1c 3b2b 00d0 0df7 0509
000000a0: 0a35 fdfd fcc3 f7dd 0005 0ae1 09de 12e9
000000b0: ea06 1c03 0103 071a d703 fe02 de00 fefc
000000c0: e068 f61b 3e0f 0dd9 03cc 310f efda 8120
000000d0: e8e9 1628 b501 f81e 15e8 0549 2837 c49c
000000e0: 11d9 c41a 050f d62f 8e08 1110 143c 0505
000000f0: 1715 4a16 eb0c 4e08 0897 331a 10e1 1ffd
-66 103 -127 -63 -57 10 2 -49
24 -5 11 30 -2 -58 -5 -80
-36 46 31 54 1 -9 -2 -28
-48 -29 35 21 -44 -21 -85 -105
6 -1 6 -67 -2 25 26 -19
17 41 18 29 -32 40 0 56
17 -23 31 -6 24 26 70 -17
-11 15 8 2 7 -17 2 15
13 85 5 15 73 -8 -40 -12
4 -16 -6 -11 5 -11 25 108
9 -48 13 -27 8 8 13 59
40 2 0 -13 -61 -63 26 9
32 76 -39 -12 -2 -4 3 19
9 11 10 -59 10 55 56 1
42 13 20 33 -15 -12 -127 84
1 -10 30 12 -30 -30 1 -25
24 47 8 -36 46 16 -45 0
-8 10 -6 -4 7 6 -1 80
-10 9 -19 -127 5 -1 12 28
59 43 0 -48 13 -9 5 9
10 53 -3 -3 -4 -61 -9 -35
0 5 10 -31 9 -34 18 -23
-22 6 28 3 1 3 7 26
-41 3 -2 2 -34 0 -2 -4
-32 104 -10 27 62 15 13 -39
3 -52 49 15 -17 -38 -127 32
-24 -23 22 40 -75 1 -8 30
21 -24 5 73 40 55 -60 -100
17 -39 -60 26 5 15 -42 47
-114 8 17 16 20 60 5 5
23 21 74 22 -21 12 78 8
8 -105 51 26 16 -31 31 -3

tfl.pseudo_qconst5 i1 [64, 1, 3, 32]
00000000: 01f3 d407 fff9 f6e5 c8e2 050d 07e9 f0f5
00000010: dd02 d1eb dc04 f5f7 01da f1f4 bbf0 01d9
00000020: 0100 fcff b0f9 fcb5 fefe f801 fac3 00fd
00000030: da01 d700 81b2 edf9 adff b9fe a68a b5a2
00000040: f506 11af 96c8 cb0c 0503 b8a9 c091 04b1
00000050: 09fa 0509 02cd fed1 b004 b1e2 d001 cd13
00000060: a6fd aa97 00f7 9508 fbfc 03f0 0fc6 029c
00000070: e7bf 95f5 0017 0005 06fb 0590 f800 0206
00000080: 0000 f801 de0a fe10 d6ff 0200 13fd 81fe
00000090: cf00 00ae 03fd ff08 f2ff f7fe 05a9 07f9
000000a0: d30d b8be 0008 a004 f6fa 01f2 0ffa fb99
000000b0: fd08 c600 f907 fe07 03fa 00a5 1ffc 060c
000000c0: 03fc 02fc 020c f202 0102 f881 fb03 01f7
000000d0: 0303 03fe ff01 f9fd fe01 fded 03fa da04
000000e0: 0201 f501 f7fc 0003 f5fd eff4 f6fe f900
000000f0: 0003 0001 0202 000c 00fe 00ff 0901 0200
1 -13 -44 7 -1 -7 -10 -27
-56 -30 5 13 7 -23 -16 -11
-35 2 -47 -21 -36 4 -11 -9
1 -38 -15 -12 -69 -16 1 -39
1 0 -4 -1 -80 -7 -4 -75
-2 -2 -8 1 -6 -61 0 -3
-38 1 -41 0 -127 -78 -19 -7
-83 -1 -71 -2 -90 -118 -75 -94
-11 6 17 -81 -106 -56 -53 12
5 3 -72 -87 -64 -111 4 -79
9 -6 5 9 2 -51 -2 -47
-80 4 -79 -30 -48 1 -51 19
-90 -3 -86 -105 0 -9 -107 8
-5 -4 3 -16 15 -58 2 -100
-25 -65 -107 -11 0 23 0 5
6 -5 5 -112 -8 0 2 6
0 0 -8 1 -34 10 -2 16
-42 -1 2 0 19 -3 -127 -2
-49 0 0 -82 3 -3 -1 8
-14 -1 -9 -2 5 -87 7 -7
-45 13 -72 -66 0 8 -96 4
-10 -6 1 -14 15 -6 -5 -103
-3 8 -58 0 -7 7 -2 7
3 -6 0 -91 31 -4 6 12
3 -4 2 -4 2 12 -14 2
1 2 -8 -127 -5 3 1 -9
3 3 3 -2 -1 1 -7 -3
-2 1 -3 -19 3 -6 -38 4
2 1 -11 1 -9 -4 0 3
-11 -3 -17 -12 -10 -2 -7 0
0 3 0 1 2 2 0 12
0 -2 0 -1 9 1 2 0

tfl.pseudo_qconst7 i1 [32, 1, 3, 1]
00000000: 81f3 8991 0881 44d2 7f81 c0d1 5084 817f
00000010: 481b d535 8138 787f 30c2 7f7f 0770 d281
00000020: a9a6 8155 834c 7f7f 25ff 33c7 7fd7 3781
00000030: 4347 7f81 cac9 655b 7fd5 3781 c77f 7e13
00000040: 7f0d 9f7f b8a5 7f50 017f f77f 0a5b ff7f
00000050: fbd4 3781 2581 449f 7f2a fd81 a7c8 2a81
-127 -13 -119 -111 8 -127 68 -46
127 -127 -64 -47 80 -124 -127 127
72 27 -43 53 -127 56 120 127
48 -62 127 127 7 112 -46 -127
-87 -90 -127 85 -125 76 127 127
37 -1 51 -57 127 -41 55 -127
67 71 127 -127 -54 -55 101 91
127 -43 55 -127 -57 127 126 19
127 13 -97 127 -72 -91 127 80
1 127 -9 127 10 91 -1 127
-5 -44 55 -127 37 -127 68 -97
127 42 -3 -127 -89 -56 42 -127
