AI_Models/Predictive Maintenance/embedded models/Engine Bearing/engine_nn_pca_quant_three_features.tflite (tflite, 16384 bytes, 5 tensors)

tfl.pseudo_qconst1 i1 [2, 32]
0	0xe8	-24
1	0xc5	-59
2	0xf0	-16
3	0x38	56
4	0x19	25
5	0xc2	-62
6	0x68	104
7	0xf9	-7
8	0xba	-70
9	0xcb	-53
10	0xdf	-33
11	0x13	19
12	0xbe	-66
13	0xf3	-13
14	0x75	117
15	0x00	0
16	0x10	16
17	0xde	-34
18	0xc0	-64
19	0xf7	-9
20	0xec	-20
21	0xd5	-43
22	0x28	40
23	0x2a	42
24	0x27	39
25	0x7f	127
26	0x14	20
27	0xe8	-24
28	0xa2	-94
29	0x66	102
30	0x63	99
31	0x10	16
32	0x03	3
33	0x98	-104
34	0xf0	-16
35	0x04	4
36	0x6b	107
37	0x9d	-99
38	0x4a	74
39	0xfc	-4
40	0xc9	-55
41	0xd0	-48
42	0xfc	-4
43	0x3e	62
44	0xb0	-80
45	0xe6	-26
46	0x3c	60
47	0xcc	-52
48	0x17	23
49	0xdb	-37
50	0xd6	-42
51	0xcf	-49
52	0x25	37
53	0xde	-34
54	0x0d	13
55	0x25	37
56	0x59	89
57	0x57	87
58	0x35	53
59	0xda	-38
60	0x86	-122
61	0x5d	93
62	0x7f	127
63	0xce	-50

tfl.pseudo_qconst3 i1 [32, 32]
0	0x43	67
1	0xfb	-5
2	0xb7	-73
3	0xed	-19
4	0x03	3
5	0xce	-50
6	0xec	-20
7	0x10	16
8	0xd6	-42
9	0x1c	28
10	0xf4	-12
11	0x0d	13
12	0x0c	12
13	0xd1	-47
14	0xb5	-75
15	0x81	-127
16	0xdb	-37
17	0x0d	13
18	0xf6	-10
19	0x11	17
20	0xf6	-10
21	0x18	24
22	0xec	-20
23	0x28	40
24	0x19	25
25	0xf8	-8
26	0xee	-18
27	0xf2	-14
28	0xfa	-6
29	0xec	-20
30	0x0a	10
31	0x25	37
32	0x54	84
33	0xba	-70
34	0x81	-127
35	0xc2	-62
36	0x1c	28
37	0xaf	-81
38	0xc0	-64
39	0x2e	46
40	0xf2	-14
41	0x59	89
42	0xa7	-89
43	0x3f	63
44	0x1a	26
45	0xdc	-36
46	0xc1	-63
47	0xc4	-60
48	0xfa	-6
49	0xf1	-15
50	0xf6	-10
51	0x68	104
52	0x09	9
53	0x15	21
54	0xe5	-27
55	0xc8	-56
56	0xbf	-65
57	0xd8	-40
58	0xe8	-24
59	0xf3	-13
60	0x0d	13
61	0xd8	-40
62	0x61	97
63	0x1a	26
64	0x0b	11
65	0xf5	-11
66	0x30	48
67	0xef	-17
68	0x0a	10
69	0x01	1
70	0x03	3
71	0xf0	-16
72	0xd8	-40
73	0xf0	-16
74	0xdb	-37
75	0x2c	44
76	0xed	-19
77	0x22	34
78	0x24	36
79	0x33	51
80	0xf5	-11
81	0xb9	-71
82	0x81	-127
83	0xf1	-15
84	0xf4	-12
85	0x1b	27
86	0x1e	30
87	0xcc	-52
88	0x1d	29
89	0xe1	-31
90	0xf6	-10
91	0x1d	29
92	0xf5	-11
93	0xdf	-33
94	0xcf	-49
95	0xfe	-2
96	0x5c	92
97	0xcb	-53
98	0xd6	-42
99	0x04	4
100	0x05	5
101	0x1b	27
102	0xd7	-41
103	0xf0	-16
104	0xe6	-26
105	0x18	24
106	0xe9	-23
107	0x20	32
108	0x0f	15
109	0xf9	-7
110	0xb8	-72
111	0xc3	-61
112	0x23	35
113	0xe5	-27
114	0xf2	-14
115	0x24	36
116	0x26	38
117	0xfe	-2
118	0x09	9
119	0xf7	-9
120	0xf3	-13
121	0x04	4
122	0xfe	-2
123	0xf3	-13
124	0x00	0
125	0xfe	-2
126	0x4a	74
127	0x81	-127
128	0xb2	-78
129	0x2c	44
130	0x2b	43
131	0xff	-1
132	0xd2	-46
133	0x2c	44
134	0x0c	12
135	0xc7	-57
136	0x1b	27
137	0x0d	13
138	0x05	5
139	0x28	40
140	0xdf	-33
141	0x0e	14
142	0x1f	31
143	0x3b	59
144	0xb8	-72
145	0x1a	26
146	0xf1	-15
147	0x81	-127
148	0x9a	-102
149	0x43	67
150	0x54	84
151	0x17	23
152	0xc8	-56
153	0x05	5
154	0xe1	-31
155	0xf5	-11
156	0x85	-123
157	0xd0	-48
158	0xa7	-89
159	0xb0	-80
160	0x1c	28
161	0xd0	-48
162	0xae	-82
163	0xac	-84
164	0x1d	29
165	0xde	-34
166	0xe3	-29
167	0xfa	-6
168	0x81	-127
169	0x04	4
170	0xdd	-35
171	0xf4	-12
172	0x07	7
173	0xef	-17
174	0x9a	-102
175	0xdf	-33
176	0x07	7
177	0x0d	13
178	0xbf	-65
179	0x00	0
180	0xe5	-27
181	0xf1	-15
182	0x05	5
183	0xba	-70
184	0xfd	-3
185	0xe5	-27
186	0xe0	-32
187	0x0d	13
188	0xe6	-26
189	0xf2	-14
190	0x2d	45
191	0xda	-38
192	0xa9	-87
193	0xcd	-51
194	0x02	2
195	0xed	-19
196	0x04	4
197	0x34	52
198	0x12	18
199	0x12	18
200	0xba	-70
201	0xd9	-39
202	0xc6	-58
203	0x17	23
204	0x09	9
205	0xe2	-30
206	0x17	23
207	0xc0	-64
208	0x81	-127
209	0xfe	-2
210	0xdd	-35
211	0xe2	-30
212	0x0d	13
213	0x00	0
214	0xf6	-10
215	0xdd	-35
216	0xea	-22
217	0x03	3
218	0xf2	-14
219	0x0e	14
220	0xcb	-53
221	0xdd	-35
222	0x86	-122
223	0x48	72
224	0x2f	47
225	0xf3	-13
226	0xdd	-35
227	0xfd	-3
228	0xf8	-8
229	0xf4	-12
230	0xeb	-21
231	0xde	-34
232	0xdc	-36
233	0xb8	-72
234	0x15	21
235	0xa8	-88
236	0xf4	-12
237	0xb9	-71
238	0x81	-127
239	0xdf	-33
240	0x04	4
241	0xe3	-29
242	0xe3	-29
243	0x0e	14
244	0xf0	-16
245	0xfc	-4
246	0xfb	-5
247	0x0f	15
248	0x23	35
249	0xea	-22
250	0xec	-20
251	0x16	22
252	0xbf	-65
253	0xeb	-21
254	0x2b	43
255	0x02	2

tfl.pseudo_qconst5 i1 [32, 64]
0	0x9b	-101
1	0xf8	-8
2	0xa1	-95
3	0xe2	-30
4	0x09	9
5	0x15	21
6	0x0a	10
7	0xb6	-74
8	0x01	1
9	0xfe	-2
10	0xf5	-11
11	0xa7	-89
12	0xed	-19
13	0xc1	-63
14	0xf5	-11
15	0x07	7
16	0x04	4
17	0xd8	-40
18	0xc4	-60
19	0xf5	-11
20	0xe6	-26
21	0xe2	-30
22	0xb7	-73
23	0xed	-19
24	0xd8	-40
25	0x04	4
26	0x81	-127
27	0x01	1
28	0xeb	-21
29	0x04	4
30	0xb1	-79
31	0x33	51
32	0xd1	-47
33	0x05	5
34	0xb6	-74
35	0x03	3
36	0xec	-20
37	0xf3	-13
38	0xf1	-15
39	0x0b	11
40	0xe4	-28
41	0x05	5
42	0x0a	10
43	0xb5	-75
44	0xff	-1
45	0x0c	12
46	0x10	16
47	0x1c	28
48	0x12	18
49	0xa7	-89
50	0xd4	-44
51	0xf2	-14
52	0xcc	-52
53	0xf7	-9
54	0x25	37
55	0x01	1
56	0x8d	-115
57	0x02	2
58	0x07	7
59	0xe0	-32
60	0x0b	11
61	0x1b	27
62	0xf7	-9
63	0x08	8
64	0x0c	12
65	0xc0	-64
66	0x02	2
67	0xf3	-13
68	0xaa	-86
69	0x25	37
70	0xf1	-15
71	0x15	21
72	0x0a	10
73	0xbe	-66
74	0xd6	-42
75	0xed	-19
76	0x09	9
77	0xcf	-49
78	0xe5	-27
79	0x81	-127
80	0xc9	-55
81	0x02	2
82	0x11	17
83	0xe6	-26
84	0x08	8
85	0x00	0
86	0x0e	14
87	0xf4	-12
88	0x0d	13
89	0x19	25
90	0xed	-19
91	0x03	3
92	0xce	-50
93	0x01	1
94	0xfa	-6
95	0x1e	30
96	0xde	-34
97	0x1f	31
98	0x34	52
99	0xb4	-76
100	0xc4	-60
101	0xd8	-40
102	0xf5	-11
103	0xea	-22
104	0x03	3
105	0xf5	-11
106	0xa6	-90
107	0xd1	-47
108	0xf3	-13
109	0xf4	-12
110	0x0c	12
111	0x0a	10
112	0xf3	-13
113	0x02	2
114	0x0b	11
115	0xf9	-7
116	0x01	1
117	0xd0	-48
118	0x2e	46
119	0x0a	10
120	0x13	19
121	0x0c	12
122	0xe2	-30
123	0xec	-20
124	0xf5	-11
125	0x18	24
126	0x13	19
127	0xec	-20
128	0x0f	15
129	0xd2	-46
130	0xec	-20
131	0xff	-1
132	0xc0	-64
133	0x0e	14
134	0xe6	-26
135	0x09	9
136	0x03	3
137	0x81	-127
138	0xed	-19
139	0xd6	-42
140	0xfa	-6
141	0xb1	-79
142	0xcd	-51
143	0x8c	-116
144	0xde	-34
145	0x05	5
146	0x1b	27
147	0xc3	-61
148	0x07	7
149	0xfc	-4
150	0xf4	-12
151	0xdc	-36
152	0xfc	-4
153	0xf8	-8
154	0xfd	-3
155	0x36	54
156	0xc0	-64
157	0xfb	-5
158	0xfc	-4
159	0x32	50
160	0xf0	-16
161	0x1f	31
162	0x19	25
163	0xb9	-71
164	0xb4	-76
165	0xf3	-13
166	0x04	4
167	0x32	50
168	0x0c	12
169	0xdb	-37
170	0x20	32
171	0xe0	-32
172	0xf4	-12
173	0x19	25
174	0x16	22
175	0x2f	47
176	0xe3	-29
177	0xfa	-6
178	0xf8	-8
179	0xfb	-5
180	0xf9	-7
181	0x01	1
182	0x10	16
183	0xd0	-48
184	0xf7	-9
185	0x02	2
186	0xdb	-37
187	0xfa	-6
188	0xe0	-32
189	0x0c	12
190	0xec	-20
191	0xee	-18
192	0xee	-18
193	0xfd	-3
194	0x03	3
195	0x0a	10
196	0x03	3
197	0xdd	-35
198	0xff	-1
199	0x10	16
200	0x0d	13
201	0x09	9
202	0xe0	-32
203	0xf2	-14
204	0x13	19
205	0x01	1
206	0xfe	-2
207	0x07	7
208	0x05	5
209	0xe3	-29
210	0x1b	27
211	0xfe	-2
212	0xe3	-29
213	0xfc	-4
214	0xc2	-62
215	0xd4	-44
216	0x09	9
217	0xca	-54
218	0x10	16
219	0x12	18
220	0x08	8
221	0xf1	-15
222	0xfa	-6
223	0xfc	-4
224	0xf8	-8
225	0x0b	11
226	0x14	20
227	0x0f	15
228	0x1e	30
229	0xd6	-42
230	0x81	-127
231	0xf5	-11
232	0x04	4
233	0x9b	-101
234	0xff	-1
235	0xeb	-21
236	0xb8	-72
237	0xb5	-75
238	0x0c	12
239	0x08	8
240	0x0a	10
241	0xf0	-16
242	0xed	-19
243	0xab	-85
244	0xf8	-8
245	0xee	-18
246	0x16	22
247	0x07	7
248	0x0b	11
249	0x08	8
250	0xb3	-77
251	0x02	2
252	0xb0	-80
253	0x16	22
254	0xf8	-8
255	0xfa	-6

tfl.pseudo_qconst7 i1 [64, 64]
0	0x00	0
1	0x00	0
2	0xff	-1
3	0x13	19
4	0xff	-1
5	0x01	1
6	0xdb	-37
7	0x03	3
8	0x07	7
9	0x02	2
10	0x00	0
11	0xc7	-57
12	0xff	-1
13	0x07	7
14	0xff	-1
15	0xfe	-2
16	0x00	0
17	0xfe	-2
18	0x02	2
19	0xf1	-15
20	0xec	-20
21	0x04	4
22	0xed	-19
23	0xfb	-5
24	0x02	2
25	0x00	0
26	0x00	0
27	0x00	0
28	0xfa	-6
29	0xff	-1
30	0xfe	-2
31	0xf9	-7
32	0x1d	29
33	0x02	2
34	0x00	0
35	0xba	-70
36	0xde	-34
37	0x05	5
38	0xfd	-3
39	0x00	0
40	0xff	-1
41	0xff	-1
42	0x01	1
43	0xe5	-27
44	0x00	0
45	0x01	1
46	0x07	7
47	0x7f	127
48	0xfb	-5
49	0x00	0
50	0x10	16
51	0x00	0
52	0xeb	-21
53	0x06	6
54	0xde	-34
55	0x00	0
56	0xff	-1
57	0x00	0
58	0xf1	-15
59	0x00	0
60	0xfa	-6
61	0xfb	-5
62	0xe9	-23
63	0x00	0
64	0x04	4
65	0xfe	-2
66	0xb5	-75
67	0x48	72
68	0xff	-1
69	0x00	0
70	0x1e	30
71	0xf4	-12
72	0xd0	-48
73	0x03	3
74	0xdd	-35
75	0x81	-127
76	0xce	-50
77	0x1e	30
78	0xfc	-4
79	0xfc	-4
80	0x06	6
81	0x2e	46
82	0xfe	-2
83	0x01	1
84	0x00	0
85	0x30	48
86	0xed	-19
87	0x08	8
88	0xe1	-31
89	0xfd	-3
90	0xff	-1
91	0x03	3
92	0x02	2
93	0x00	0
94	0x40	64
95	0xf1	-15
96	0x12	18
97	0x20	32
98	0xde	-34
99	0xd2	-46
100	0x12	18
101	0x8b	-117
102	0xe9	-23
103	0x00	0
104	0x02	2
105	0xfe	-2
106	0xba	-70
107	0x84	-124
108	0xfd	-3
109	0xff	-1
110	0xba	-70
111	0x38	56
112	0x8e	-114
113	0xe6	-26
114	0x07	7
115	0x02	2
116	0xfb	-5
117	0x2e	46
118	0xe8	-24
119	0xf9	-7
120	0xde	-34
121	0x01	1
122	0xfa	-6
123	0xfe	-2
124	0xff	-1
125	0x04	4
126	0xfd	-3
127	0xfe	-2
128	0x00	0
129	0x00	0
130	0xfe	-2
131	0x7a	122
132	0xff	-1
133	0xff	-1
134	0xfc	-4
135	0xfe	-2
136	0x02	2
137	0x01	1
138	0xfb	-5
139	0x11	17
140	0x01	1
141	0xf9	-7
142	0xff	-1
143	0x01	1
144	0xff	-1
145	0x36	54
146	0x00	0
147	0x05	5
148	0x01	1
149	0x30	48
150	0xff	-1
151	0x0d	13
152	0xf9	-7
153	0x01	1
154	0xfc	-4
155	0x0c	12
156	0x00	0
157	0x00	0
158	0x1d	29
159	0x09	9
160	0x08	8
161	0x00	0
162	0xfb	-5
163	0x17	23
164	0xfc	-4
165	0x0d	13
166	0x03	3
167	0x00	0
168	0xff	-1
169	0x00	0
170	0x02	2
171	0xf9	-7
172	0xfe	-2
173	0x00	0
174	0x77	119
175	0x76	118
176	0x81	-127
177	0xfc	-4
178	0x1e	30
179	0x01	1
180	0x04	4
181	0x0b	11
182	0x10	16
183	0x00	0
184	0xf7	-9
185	0x00	0
186	0x03	3
187	0x00	0
188	0x01	1
189	0xfd	-3
190	0xff	-1
191	0x00	0
192	0x01	1
193	0x00	0
194	0x14	20
195	0xe7	-25
196	0x00	0
197	0x00	0
198	0xf7	-9
199	0xfb	-5
200	0xf4	-12
201	0x02	2
202	0xfd	-3
203	0x7f	127
204	0x1a	26
205	0x02	2
206	0x02	2
207	0xf3	-13
208	0x01	1
209	0xf2	-14
210	0xff	-1
211	0x05	5
212	0x07	7
213	0xf7	-9
214	0xf9	-7
215	0x11	17
216	0xfc	-4
217	0xff	-1
218	0x02	2
219	0x05	5
220	0x01	1
221	0x01	1
222	0xfc	-4
223	0x05	5
224	0xe9	-23
225	0x05	5
226	0xfb	-5
227	0x66	102
228	0xfd	-3
229	0x25	37
230	0xfd	-3
231	0x00	0
232	0xfe	-2
233	0x00	0
234	0x08	8
235	0x13	19
236	0x03	3
237	0xfd	-3
238	0xf8	-8
239	0x36	54
240	0xba	-70
241	0xfc	-4
242	0x03	3
243	0xfb	-5
244	0xef	-17
245	0x02	2
246	0x44	68
247	0x01	1
248	0xfb	-5
249	0xfc	-4
250	0xf4	-12
251	0xff	-1
252	0x02	2
253	0x05	5
254	0xef	-17
255	0x01	1

tfl.pseudo_qconst9 i1 [64, 3]
0	0x41	65
1	0xd1	-47
2	0x81	-127
3	0x7f	127
4	0x52	82
5	0x22	34
6	0xa7	-89
7	0x7f	127
8	0x4e	78
9	0xab	-85
10	0x81	-127
11	0x53	83
12	0x8d	-115
13	0x7f	127
14	0x3c	60
15	0xdb	-37
16	0x7f	127
17	0xb9	-71
18	0x7f	127
19	0x3d	61
20	0x28	40
21	0x81	-127
22	0xf1	-15
23	0x92	-110
24	0xc8	-56
25	0x2a	42
26	0x7f	127
27	0xd3	-45
28	0x83	-125
29	0x7f	127
30	0x8b	-117
31	0x04	4
32	0x81	-127
33	0x81	-127
34	0xbb	-69
35	0xeb	-21
36	0x9b	-101
37	0x7f	127
38	0x66	102
39	0x89	-119
40	0x03	3
41	0x81	-127
42	0xb0	-80
43	0xdd	-35
44	0x81	-127
45	0xc4	-60
46	0xa3	-93
47	0x7f	127
48	0x06	6
49	0xb9	-71
50	0x81	-127
51	0xa4	-92
52	0x81	-127
53	0x52	82
54	0x7f	127
55	0x2f	47
56	0x47	71
57	0x7f	127
58	0x26	38
59	0x51	81
60	0x7f	127
61	0x12	18
62	0x5b	91
63	0xa6	-90
64	0x81	-127
65	0x52	82
66	0x81	-127
67	0x93	-109
68	0x09	9
69	0x21	33
70	0x7f	127
71	0x51	81
72	0x8b	-117
73	0x02	2
74	0x81	-127
75	0xe7	-25
76	0x37	55
77	0x7f	127
78	0xca	-54
79	0x31	49
80	0x81	-127
81	0x61	97
82	0x7f	127
83	0x0a	10
84	0x81	-127
85	0x04	4
86	0x08	8
87	0x7f	127
88	0xee	-18
89	0xc3	-61
90	0xa7	-89
91	0x81	-127
92	0x4e	78
93	0x81	-127
94	0xc4	-60
95	0xd5	-43
96	0x8b	-117
97	0xf8	-8
98	0x81	-127
99	0xb7	-73
100	0x20	32
101	0x7f	127
102	0x8a	-118
103	0x01	1
104	0x81	-127
105	0x81	-127
106	0xa8	-88
107	0xf8	-8
108	0x7f	127
109	0x32	50
110	0x37	55
111	0xb4	-76
112	0x7f	127
113	0x63	99
114	0x0f	15
115	0xb7	-73
116	0x7f	127
117	0xf0	-16
118	0x7f	127
119	0x42	66
120	0x66	102
121	0x7f	127
122	0xda	-38
123	0xfe	-2
124	0x81	-127
125	0x02	2
126	0x16	22
127	0xa2	-94
128	0x7f	127
129	0x81	-127
130	0xb4	-76
131	0xdf	-33
132	0xd0	-48
133	0x11	17
134	0x81	-127
135	0x4f	79
136	0xd9	-39
137	0x7f	127
138	0xaf	-81
139	0x81	-127
140	0x58	88
141	0x82	-126
142	0x5c	92
143	0x7f	127
144	0x81	-127
145	0x71	113
146	0x3e	62
147	0x83	-125
148	0x05	5
149	0x81	-127
150	0x81	-127
151	0x08	8
152	0x93	-109
153	0x12	18
154	0xab	-85
155	0x7f	127
156	0xbe	-66
157	0x81	-127
158	0x64	100
159	0x81	-127
160	0xda	-38
161	0xae	-82
162	0x81	-127
163	0xba	-70
164	0xda	-38
165	0x60	96
166	0x4c	76
167	0x7f	127
168	0x84	-124
169	0x05	5
170	0x81	-127
171	0x33	51
172	0xc5	-59
173	0x7f	127
174	0xb8	-72
175	0x81	-127
176	0x5a	90
177	0x14	20
178	0x20	32
179	0x7f	127
180	0x81	-127
181	0x08	8
182	0x0b	11
183	0xcf	-49
184	0x81	-127
185	0x7d	125
186	0xbd	-67
187	0x81	-127
188	0x6c	108
189	0x7f	127
190	0xe6	-26
191	0x1a	26
