AI_Models/Predictive Maintenance/embedded models/Engine Bearing/engine_nn_quant_four_features.tflite (tflite, 16392 bytes, 5 tensors)

tfl.pseudo_qconst1 i1 [2, 32]
-82 -47 -40 0 -69 -12 24 -58
-21 -8 -127 -31 -17 -81 -23 -86
6 -15 58 -50 -64 -81 6 18
46 94 -63 29 42 84 -34 29
-95 -56 6 -10 -28 -70 -10 -103
-40 38 -47 -35 14 -74 7 -105
42 -58 127 -60 -21 -93 -14 -18
58 108 -75 -31 55 84 -2 24
00000000: aed1 d800 bbf4 18c6 ebf8 81e1 efaf e9aa
00000010: 06f1 3ace c0af 0612 2e5e c11d 2a54 de1d
00000020: a1c8 06f6 e4ba f699 d826 d1dd 0eb6 0797
00000030: 2ac6 7fc4 eba3 f2ee 3a6c b5e1 3754 fe18

tfl.pseudo_qconst3 i1 [32, 32]
-72 -24 -13 -57 4 -117 -3 10
-37 -7 12 -33 -97 -62 -34 -20
-91 -72 -47 -127 -9 -21 -20 33
-16 3 -50 -102 -46 -14 15 -9
-12 -53 -11 -26 -9 -29 -127 33
25 0 5 13 11 -27 -56 -23
-15 3 -9 -2 -112 -5 10 -14
-13 -53 4 -9 -36 21 63 111
-42 -9 -42 -25 35 -127 10 -87
17 -16 22 49 35 52 33 19
-42 -44 -63 14 -99 20 -45 -30
11 3 -77 -42 41 -36 -17 70
-22 19 -32 -27 -25 -3 -30 -7
-20 5 -118 -17 -30 -85 -82 29
20 23 -10 2 127 4 -5 -5
-10 -38 -64 31 -102 -58 71 -46
10 -4 -1 4 1 3 8 -83
-113 -1 -127 9 0 -10 26 -11
13 -27 30 -3 9 -8 -47 32
11 16 -37 1 1 8 7 6
-118 -10 -100 1 12 8 8 12
-60 1 5 2 4 -7 0 8
-8 -2 -4 -5 17 14 -9 2
-4 -3 16 -42 -62 -127 -28 3
-3 37 -10 -17 -5 16 -71 2
-9 7 4 -55 -72 -52 -80 34
-9 -2 -12 17 12 -2 -127 -32
-27 -52 31 -10 -44 20 39 32
-12 17 -1 -32 -46 -27 -2 -21
-22 -83 -14 -87 -21 -27 -113 -36
-5 -12 -5 -73 70 -24 -24 -127
-28 14 64 -25 -26 35 27 -23
00000000: b8e8 f3c7 048b fd0a dbf9 0cdf 9fc2 deec
00000010: a5b8 d181 f7eb ec21 f003 ce9a d2f2 0ff7
00000020: f4cb f5e6 f7e3 8121 1900 050d 0be5 c8e9
00000030: f103 f7fe 90fb 0af2 f3cb 04f7 dc15 3f6f
00000040: d6f7 d6e7 2381 0aa9 11f0 1631 2334 2113
00000050: d6d4 c10e 9d14 d3e2 0b03 b3d6 29dc ef46
00000060: ea13 e0e5 e7fd e2f9 ec05 8aef e2ab ae1d
00000070: 1417 f602 7f04 fbfb f6da c01f 9ac6 47d2
00000080: 0afc ff04 0103 08ad 8fff 8109 00f6 1af5
00000090: 0de5 1efd 09f8 d120 0b10 db01 0108 0706
000000a0: 8af6 9c01 0c08 080c c401 0502 04f9 0008
000000b0: f8fe fcfb 110e f702 fcfd 10d6 c281 e403
000000c0: fd25 f6ef fb10 b902 f707 04c9 b8cc b022
000000d0: f7fe f411 0cfe 81e0 e5cc 1ff6 d414 2720
000000e0: f411 ffe0 d2e5 feeb eaad f2a9 ebe5 8fdc
000000f0: fbf4 fbb7 46e8 e881 e40e 40e7 e623 1be9

tfl.pseudo_qconst5 i1 [32, 64]
40 -11 -7 31 -57 101 13 -90
-32 16 8 -2 40 10 37 -66
26 -34 6 13 -44 7 4 -115
-113 -86 -12 2 12 7 -39 13
21 16 0 -102 2 20 -33 -29
-79 -12 -15 -21 -54 14 5 -15
60 36 -16 23 -81 -59 -1 24
10 -27 -127 -10 11 9 -53 -1
-34 -75 -23 -9 -44 -74 -23 -58
13 -31 6 2 1 -6 -7 -47
-84 2 -30 1 -22 -6 13 -59
0 -3 -16 1 -1 34 -33 -106
-28 4 -21 -3 -91 22 -12 12
-29 33 13 13 40 9 24 -40
-3 -90 -29 16 21 1 -59 -59
-15 -3 5 -53 -127 14 -8 13
28 12 -6 -2 -39 9 -4 -23
-66 6 -12 -2 13 26 65 -127
-12 -55 7 6 -13 3 11 -45
-73 -65 -2 8 11 10 16 4
9 -14 -5 -105 10 12 -58 26
-99 -47 -27 1 -42 -2 7 -34
38 10 -14 12 -8 -118 53 29
13 -45 -81 -39 -2 -19 -112 1
-46 6 -8 -53 0 -3 1 49
6 7 7 0 -4 -37 -4 6
31 1 15 17 12 4 21 -126
-4 -7 14 4 -53 -56 -127 -73
-9 -82 7 -33 10 -68 -19 -89
3 -27 3 -4 -13 -6 7 -41
-64 31 -2 22 14 -1 28 -14
-31 -20 11 1 -7 -22 42 7
00000000: 28f5 f91f c765 0da6 e010 08fe 280a 25be
00000010: 1ade 060d d407 048d 8faa f402 0c07 d90d
00000020: 1510 009a 0214 dfe3 b1f4 f1eb ca0e 05f1
00000030: 3c24 f017 afc5 ff18 0ae5 81f6 0b09 cbff
00000040: deb5 e9f7 d4b6 e9c6 0de1 0602 01fa f9d1
00000050: ac02 e201 eafa 0dc5 00fd f001 ff22 df96
00000060: e404 ebfd a516 f40c e321 0d0d 2809 18d8
00000070: fda6 e310 1501 c5c5 f1fd 05cb 810e f80d
00000080: 1c0c fafe d909 fce9 be06 f4fe 0d1a 4181
00000090: f4c9 0706 f303 0bd3 b7bf fe08 0b0a 1004
000000a0: 09f2 fb97 0a0c c61a 9dd1 e501 d6fe 07de
000000b0: 260a f20c f88a 351d 0dd3 afd9 feed 9001
000000c0: d206 f8cb 00fd 0131 0607 0700 fcdb fc06
000000d0: 1f01 0f11 0c04 1582 fcf9 0e04 cbc8 81b7
000000e0: f7ae 07df 0abc eda7 03e5 03fc f3fa 07d7
000000f0: c01f fe16 0eff 1cf2 e1ec 0b01 f9ea 2a07

tfl.pseudo_qconst7 i1 [64, 64]
-14 0 -16 -2 -26 -11 -7 0
-2 0 -4 2 -8 -11 3 0
1 -1 -1 0 1 3 -16 -14
-10 1 0 -37 0 35 -5 -127
-7 1 -3 6 -3 0 -1 -1
0 1 0 -2 0 -6 -6 0
-2 -1 5 0 -5 0 0 -18
0 -1 0 0 -1 2 -1 1
-6 1 -4 17 -13 3 9 1
-17 1 -22 -14 7 -23 -1 1
-84 -7 1 -2 -4 -11 -1 -33
-21 1 0 45 1 32 1 -127
-5 -86 1 13 3 -1 40 2
-8 0 2 5 2 -125 -44 -2
-7 -11 -20 1 -11 1 -11 -119
108 -6 1 -1 102 -44 5 3
-22 0 -35 13 -30 -1 -7 1
-2 19 -1 -1 -9 -1 -4 0
-39 -6 -3 0 -2 4 -3 -1
7 -6 0 88 0 1 -2 -107
-5 -19 3 15 5 0 30 -1
1 0 -16 -9 0 -119 -17 0
-1 -10 -2 0 6 0 -10 39
20 -1 -3 0 127 -7 -1 -1
1 0 -7 -17 -26 -1 3 0
-2 -5 0 0 0 -1 1 0
-14 0 0 0 0 -9 -15 -1
4 -1 0 0 0 17 0 -9
-15 -5 -9 -5 3 0 3 -4
-1 1 -2 -1 1 19 -13 0
0 0 1 -1 0 0 -1 -43
-19 -1 -5 0 127 2 -3 0
00000000: f200 f0fe e6f5 f900 fe00 fc02 f8f5 0300
00000010: 01ff ff00 0103 f0f2 f601 00db 0023 fb81
00000020: f901 fd06 fd00 ffff 0001 00fe 00fa fa00
00000030: feff 0500 fb00 00ee 00ff 0000 ff02 ff01
00000040: fa01 fc11 f303 0901 ef01 eaf2 07e9 ff01
00000050: acf9 01fe fcf5 ffdf eb01 002d 0120 0181
00000060: fbaa 010d 03ff 2802 f800 0205 0283 d4fe
00000070: f9f5 ec01 f501 f589 6cfa 01ff 66d4 0503
00000080: ea00 dd0d e2ff f901 fe13 ffff f7ff fc00
00000090: d9fa fd00 fe04 fdff 07fa 0058 0001 fe95
000000a0: fbed 030f 0500 1eff 0100 f0f7 0089 ef00
000000b0: fff6 fe00 0600 f627 14ff fd00 7ff9 ffff
000000c0: 0100 f9ef e6ff 0300 fefb 0000 00ff 0100
000000d0: f200 0000 00f7 f1ff 04ff 0000 0011 00f7
000000e0: f1fb f7fb 0300 03fc ff01 feff 0113 f300
000000f0: 0000 01ff 0000 ffd5 edff fb00 7f02 fd00

tfl.pseudo_qconst9 i1 [64, 4]
-14 -127 0 -1 127 48 3 98
74 2 -127 72 -127 4 -1 -6
11 6 -127 0 -127 8 -26 38
-3 -127 0 0 -127 78 11 3
66 -127 -14 -59 -76 -127 2 9
79 59 39 -127 127 91 39 -88
-3 -127 0 -1 57 55 6 -127
-127 28 -4 -24 127 41 7 92
-127 4 -1 3 -127 -16 0 -1
-120 -87 103 -127 68 36 127 -89
-127 20 19 -25 -127 2 6 16
34 -127 -4 8 98 60 -8 -127
127 76 10 -68 20 -127 -54 -2
-21 -34 127 76 -14 -127 0 -1
22 127 12 -29 9 -127 0 0
11 6 -25 127 0 -127 65 11
42 -127 -2 3 -127 -15 -2 2
0 -96 64 127 -127 -114 6 14
-18 -127 -16 -1 127 27 0 8
-2 -127 0 1 47 -127 32 27
-44 -64 -48 -127 65 127 6 -46
-127 2 1 -18 15 -127 0 0
8 22 127 -13 25 6 -6 127
-73 -127 0 0 59 43 127 -95
-46 -37 2 -127 -127 4 0 -2
19 -127 -4 -22 -28 -31 127 77
-113 60 1 -127 127 48 2 88
-127 4 -1 -1 4 -78 86 127
-127 -13 0 -7 -47 -38 -1 -127
2 5 -127 23 127 -13 -1 6
-127 -85 3 4 127 -85 91 -62
-2 4 -127 19 -127 7 32 4
00000000: f281 00ff 7f30 0362 4a02 8148 8104 fffa
00000010: 0b06 8100 8108 e626 fd81 0000 814e 0b03
00000020: 4281 f2c5 b481 0209 4f3b 2781 7f5b 27a8
00000030: fd81 00ff 3937 0681 811c fce8 7f29 075c
00000040: 8104 ff03 81f0 00ff 88a9 6781 4424 7fa7
00000050: 8114 13e7 8102 0610 2281 fc08 623c f881
00000060: 7f4c 0abc 1481 cafe ebde 7f4c f281 00ff
00000070: 167f 0ce3 0981 0000 0b06 e77f 0081 410b
00000080: 2a81 fe03 81f1 fe02 00a0 407f 818e 060e
00000090: ee81 f0ff 7f1b 0008 fe81 0001 2f81 201b
000000a0: d4c0 d081 417f 06d2 8102 01ee 0f81 0000
000000b0: 0816 7ff3 1906 fa7f b781 0000 3b2b 7fa1
000000c0: d2db 0281 8104 00fe 1381 fcea e4e1 7f4d
000000d0: 8f3c 0181 7f30 0258 8104 ffff 04b2 567f
000000e0: 81f3 00f9 d1da ff81 0205 8117 7ff3 ff06
000000f0: 81ab 0304 7fab 5bc2 fe04 8113 8107 2004
