AI_Models/Predictive Maintenance/embedded models/Engine Bearing/engine_nn_quant_three_features.tflite (tflite, 16328 bytes, 5 tensors)

tfl.pseudo_qconst1 i1 [2, 32]
89 98 25 66 22 91 -14 -16
-43 23 40 -16 90 108 88 -39
86 -56 127 -82 79 -71 115 -95
35 89 87 -17 -50 -35 -87 -59
96 127 -21 4 -21 81 2 -60
-54 -21 48 -25 51 103 73 -22
104 34 89 -48 86 -39 43 -54
6 58 96 -20 -75 -15 -64 -12
00000000: 5962 1942 165b f2f0 d517 28f0 5a6c 58d9
00000010: 56c8 7fae 4fb9 73a1 2359 57ef cedd a9c5
00000020: 607f eb04 eb51 02c4 caeb 30e7 3367 49ea
00000030: 6822 59d0 56d9 2bca 063a 60ec b5f1 c0f4

tfl.pseudo_qconst3 i1 [32, 32]
21 -52 -59 20 -1 -111 -109 -61
-35 -35 -54 -43 49 -44 46 -6
5 -54 6 -66 124 -69 -4 -80
28 -36 9 -33 -86 -50 -13 -127
-41 19 4 -39 -49 -18 32 -14
-46 -18 -16 -15 -18 -8 63 18
10 1 24 -14 4 95 -1 -66
22 -20 -32 -127 -39 20 -38 0
3 -18 40 14 -9 -19 76 3
3 9 47 10 -11 -28 -17 -72
-27 -74 -13 -3 98 -1 -100 36
-15 -56 -118 -9 19 -19 -127 16
3 0 4 26 1 -17 4 19
17 -5 -37 10 -12 -13 -127 -15
-5 -8 -55 30 14 -27 -16 17
-14 2 -22 -21 -7 5 5 19
-10 -32 36 2 -84 -110 20 52
-127 -19 33 -36 -5 -22 9 -118
-23 4 -89 56 39 -45 -78 -100
-72 11 -43 -29 11 25 -33 21
-74 1 -20 -58 50 -78 -102 -1
-12 -61 -12 -41 -26 -29 54 21
-38 -127 -37 -94 26 -18 -39 2
10 -22 -12 -71 -96 -125 -55 17
-17 44 11 10 27 -17 56 -5
-25 6 -17 -97 -5 -16 5 33
21 64 -49 -6 92 1 13 -18
42 -2 -15 48 15 48 -46 -127
57 -12 23 7 -77 -11 38 100
-48 36 25 -40 -30 -89 -57 -12
-73 -46 -39 4 34 -36 -8 77
-101 -127 33 -49 -62 1 -20 -82
00000000: 15cc c514 ff91 93c3 dddd cad5 31d4 2efa
00000010: 05ca 06be 7cbb fcb0 1cdc 09df aace f381
00000020: d713 04d9 cfee 20f2 d2ee f0f1 eef8 3f12
00000030: 0a01 18f2 045f ffbe 16ec e081 d914 da00
00000040: 03ee 280e f7ed 4c03 0309 2f0a f5e4 efb8
00000050: e5b6 f3fd 62ff 9c24 f1c8 8af7 13ed 8110
00000060: 0300 041a 01ef 0413 11fb db0a f4f3 81f1
00000070: fbf8 c91e 0ee5 f011 f202 eaeb f905 0513
00000080: f6e0 2402 ac92 1434 81ed 21dc fbea 098a
00000090: e904 a738 27d3 b29c b80b d5e3 0b19 df15
000000a0: b601 ecc6 32b2 9aff f4c3 f4d7 e6e3 3615
000000b0: da81 dba2 1aee d902 0aea f4b9 a083 c911
000000c0: ef2c 0b0a 1bef 38fb e706 ef9f fbf0 0521
000000d0: 1540 cffa 5c01 0dee 2afe f130 0f30 d281
000000e0: 39f4 1707 b3f5 2664 d024 19d8 e2a7 c7f4
000000f0: b7d2 d904 22dc f84d 9b81 21cf c201 ecae

tfl.pseudo_qconst5 i1 [32, 64]
1 0 5 4 28 25 -21 -7
0 -4 -17 -12 1 62 -10 29
4 -70 -39 -54 -25 -24 -70 4
45 35 6 -36 -5 13 5 -84
-19 6 -41 -44 1 2 -5 -64
5 -34 0 -28 -32 -60 -7 -38
-55 -44 -51 7 -15 -9 127 10
2 -61 -17 -20 5 -9 58 -28
36 8 -52 -9 -113 32 69 -21
-59 42 38 10 39 27 -72 -69
64 15 -10 -2 -12 40 -88 -32
-1 98 -58 -2 11 -52 -30 10
95 62 13 1 15 -113 -51 -69
-127 8 -82 6 5 -43 18 -2
-52 -37 9 5 -29 -41 16 -36
10 14 -3 -82 76 -19 -5 -35
-40 -34 -13 13 20 -50 -4 2
-79 -4 -66 37 -68 51 9 -10
-40 -24 -91 -17 -50 43 -11 2
-6 34 -1 -36 -23 26 8 -14
36 13 -83 -43 -63 -9 13 20
-70 -61 -55 -15 -68 18 27 -21
-79 -127 -45 -28 -11 1 81 -3
-85 -123 3 -5 -18 -1 2 -32
-18 7 7 10 -6 10 -60 14
-4 11 -51 49 -10 30 -6 12
-41 -33 -68 -80 -13 23 11 11
24 4 -1 -77 -19 -4 15 -97
-6 7 -73 -52 -54 3 -1 -3
-17 -115 -9 -29 -127 19 15 -15
-58 -37 -44 -26 -17 -1 77 10
-37 -116 9 19 -39 -3 -18 -4
00000000: 0100 0504 1c19 ebf9 00fc eff4 013e f61d
00000010: 04ba d9ca e7e8 ba04 2d23 06dc fb0d 05ac
00000020: ed06 d7d4 0102 fbc0 05de 00e4 e0c4 f9da
00000030: c9d4 cd07 f1f7 7f0a 02c3 efec 05f7 3ae4
00000040: 2408 ccf7 8f20 45eb c52a 260a 271b b8bb
00000050: 400f f6fe f428 a8e0 ff62 c6fe 0bcc e20a
00000060: 5f3e 0d01 0f8f cdbb 8108 ae06 05d5 12fe
00000070: ccdb 0905 e3d7 10dc 0a0e fdae 4ced fbdd
00000080: d8de f30d 14ce fc02 b1fc be25 bc33 09f6
00000090: d8e8 a5ef ce2b f502 fa22 ffdc e91a 08f2
000000a0: 240d add5 c1f7 0d14 bac3 c9f1 bc12 1beb
000000b0: b181 d3e4 f501 51fd ab85 03fb eeff 02e0
000000c0: ee07 070a fa0a c40e fc0b cd31 f61e fa0c
000000d0: d7df bcb0 f317 0b0b 1804 ffb3 edfc 0f9f
000000e0: fa07 b7cc ca03 fffd ef8d f7e3 8113 0ff1
000000f0: c6db d4e6 efff 4d0a db8c 0913 d9fd eefc

tfl.pseudo_qconst7 i1 [64, 64]
-1 -4 -9 -1 3 -3 22 -1
0 -9 -3 -42 0 3 17 2
-7 3 0 1 0 4 -2 -52
3 3 1 6 51 0 -8 0
0 -1 -66 -3 1 7 -12 -12
6 0 -127 -60 2 -43 1 -60
2 -1 0 -41 -20 -1 -2 1
-33 -6 -1 -89 1 -3 -43 0
-1 -1 2 0 -4 1 13 -6
0 -10 0 -40 0 -2 19 0
3 -3 -1 2 1 -1 -2 -35
8 0 0 -15 17 -4 -127 3
1 4 -44 -116 2 -3 -20 3
1 -2 85 -19 -37 2 0 11
-4 -4 -1 74 -30 2 -2 -2
-2 4 0 7 -4 0 -1 1
-1 2 -1 1 -8 -13 -40 -17
1 127 0 35 0 -17 -36 -1
-5 7 1 -2 0 -21 -1 12
-7 0 0 0 122 -16 92 -2
-1 -6 -13 4 -2 -21 34 -16
1 0 76 -26 -1 7 1 44
4 4 1 -9 1 -7 -12 -1
0 -8 0 -4 0 0 1 -7
0 -1 -1 0 -6 -16 61 79
0 60 -3 32 -1 -4 -14 1
1 1 -26 -1 2 -13 1 6
5 -4 0 9 127 -11 30 -1
-1 17 4 2 -1 -11 34 -12
-13 -1 -16 1 1 69 -2 -6
-21 -24 2 6 5 0 1 0
0 -8 0 58 0 0 -3 0
00000000: fffc f7ff 03fd 16ff 00f7 fdd6 0003 1102
00000010: f903 0001 0004 fecc 0303 0106 3300 f800
00000020: 00ff befd 0107 f4f4 0600 81c4 02d5 01c4
00000030: 02ff 00d7 ecff fe01 dffa ffa7 01fd d500
00000040: ffff 0200 fc01 0dfa 00f6 00d8 00fe 1300
00000050: 03fd ff02 01ff fedd 0800 00f1 11fc 8103
00000060: 0104 d48c 02fd ec03 01fe 55ed db02 000b
00000070: fcfc ff4a e202 fefe fe04 0007 fc00 ff01
00000080: ff02 ff01 f8f3 d8ef 017f 0023 00ef dcff
00000090: fb07 01fe 00eb ff0c f900 0000 7af0 5cfe
000000a0: fffa f304 feeb 22f0 0100 4ce6 ff07 012c
000000b0: 0404 01f7 01f9 f4ff 00f8 00fc 0000 01f9
000000c0: 00ff ff00 faf0 3d4f 003c fd20 fffc f201
000000d0: 0101 e6ff 02f3 0106 05fc 0009 7ff5 1eff
000000e0: ff11 0402 fff5 22f4 f3ff f001 0145 fefa
000000f0: ebe8 0206 0500 0100 00f8 003a 0000 fd00

tfl.pseudo_qconst9 i1 [64, 3]
91 -127 -5 65 -127 70 -65 -127
10 0 -1 127 19 -127 -1 127
30 1 -127 3 2 -127 -1 6
127 20 -1 -9 -127 0 69 14
127 18 3 -127 96 -127 2 55
-127 -4 127 89 6 -127 64 2
-95 -127 -6 -97 10 -127 -127 6
3 -127 3 2 -1 -127 0 48
-127 -2 127 -20 -68 53 -26 -127
-28 -127 -52 -127 24 19 127 45
-2 44 -80 -127 7 -13 -127 25
-127 0 11 -127 3 -127 6 2
-127 5 2 -1 -55 -127 -16 -127
-3 -2 -127 0 -127 5 1 49
-127 -2 9 3 -127 127 34 -1
15 -127 8 71 -5 -127 -1 -127
1 -13 -127 0 94 127 -28 -127
-110 -2 127 -43 0 3 -21 127
-127 5 1 -127 5 1 127 24
-49 127 32 5 2 -127 -1 -127
-11 1 55 -127 -25 -14 -127 -100
127 40 11 127 39 -1 127 -73
-1 -114 -127 -1 36 57 -127 -76
76 127 127 37 -4 -127 -20 0
00000000: 5b81 fb41 8146 bf81 0a00 ff7f 1381 ff7f
00000010: 1e01 8103 0281 ff06 7f14 fff7 8100 450e
00000020: 7f12 0381 6081 0237 81fc 7f59 0681 4002
00000030: a181 fa9f 0a81 8106 0381 0302 ff81 0030
00000040: 81fe 7fec bc35 e681 e481 cc81 1813 7f2d
00000050: fe2c b081 07f3 8119 8100 0b81 0381 0602
00000060: 8105 02ff c981 f081 fdfe 8100 8105 0131
00000070: 81fe 0903 817f 22ff 0f81 0847 fb81 ff81
00000080: 01f3 8100 5e7f e481 92fe 7fd5 0003 eb7f
00000090: 8105 0181 0501 7f18 cf7f 2005 0281 ff81
000000a0: f501 3781 e7f2 819c 7f28 0b7f 27ff 7fb7
000000b0: ff8e 81ff 2439 81b4 4c7f 7f25 fc81 ec00
